…
原始图像形状: (3301, 2550, 3), 掩码形状: (3301, 2550)
图像值范围: [0, 255], 掩码值范围: [0, 1]
转换后掩码的唯一值: [0. 1.], 形状: torch.Size([1, 224, 224])
读取图像: data/annotation_images/1_page_002.png, 掩码: data/mask/1_page_002_mask.png
原始图像形状: (6000, 10667, 3), 掩码形状: (6000, 10667)
图像值范围: [0, 255], 掩码值范围: [0, 1]
读取图像: data/annotation_images/1_page_001.png, 掩码: data/mask/1_page_001_mask.png
原始图像形状: (6000, 10667, 3), 掩码形状: (6000, 10667)
转换后掩码的唯一值: [0. 1.], 形状: torch.Size([1, 224, 224])
图像值范围: [0, 255], 掩码值范围: [0, 1]
转换后掩码的唯一值: [0. 1.], 形状: torch.Size([1, 224, 224])
测试 数据集掩码统计：总数 3, 全0: 0, 全1: 0, 有内容: 3

使用设备: cuda
模型结构:
SimpleUNet(
  (enc1): Sequential(
    (0): Conv2d(3, 64, kernel_size=(3, 3), stride=(1, 1), padding=(1, 1))
    (1): BatchNorm2d(64, eps=1e-05, momentum=0.1, affine=True, track_running_stats=True)
    (2): ReLU(inplace=True)
    (3): Conv2d(64, 64, kernel_size=(3, 3), stride=(1, 1), padding=(1, 1))
    (4): BatchNorm2d(64, eps=1e-05, momentum=0.1, affine=True, track_running_stats=True)
    (5): ReLU(inplace=True)
  )
  (enc2): Sequential(
    (0): Conv2d(64, 128, kernel_size=(3, 3), stride=(1, 1), padding=(1, 1))
    (1): BatchNorm2d(128, eps=1e-05, momentum=0.1, affine=True, track_running_stats=True)
    (2): ReLU(inplace=True)
    (3): Conv2d(128, 128, kernel_size=(3, 3), stride=(1, 1), padding=(1, 1))
    (4): BatchNorm2d(128, eps=1e-05, momentum=0.1, affine=True, track_running_stats=True)
    (5): ReLU(inplace=True)
  )
  (enc3): Sequential(
    (0): Conv2d(128, 256, kernel_size=(3, 3), stride=(1, 1), padding=(1, 1))
    (1): BatchNorm2d(256, eps=1e-05, momentum=0.1, affine=True, track_running_stats=True)
    (2): ReLU(inplace=True)
    (3): Conv2d(256, 256, kernel_size=(3, 3), stride=(1, 1), padding=(1, 1))
    (4): BatchNorm2d(256, eps=1e-05, momentum=0.1, affine=True, track_running_stats=True)
    (5): ReLU(inplace=True)
  )
  (middle): Sequential(
    (0): Conv2d(256, 512, kernel_size=(3, 3), stride=(1, 1), padding=(1, 1))
    (1): BatchNorm2d(512, eps=1e-05, momentum=0.1, affine=True, track_running_stats=True)
    (2): ReLU(inplace=True)
    (3): Conv2d(512, 512, kernel_size=(3, 3), stride=(1, 1), padding=(1, 1))
    (4): BatchNorm2d(512, eps=1e-05, momentum=0.1, affine=True, track_running_stats=True)
    (5): ReLU(inplace=True)
  )
  (dec3): Sequential(
    (0): Conv2d(768, 256, kernel_size=(3, 3), stride=(1, 1), padding=(1, 1))
    (1): BatchNorm2d(256, eps=1e-05, momentum=0.1, affine=True, track_running_stats=True)
    (2): ReLU(inplace=True)
    (3): Conv2d(256, 256, kernel_size=(3, 3), stride=(1, 1), padding=(1, 1))
    (4): BatchNorm2d(256, eps=1e-05, momentum=0.1, affine=True, track_running_stats=True)
    (5): ReLU(inplace=True)
  )
  (dec2): Sequential(
    (0): Conv2d(384, 128, kernel_size=(3, 3), stride=(1, 1), padding=(1, 1))
    (1): BatchNorm2d(128, eps=1e-05, momentum=0.1, affine=True, track_running_stats=True)
    (2): ReLU(inplace=True)
    (3): Conv2d(128, 128, kernel_size=(3, 3), stride=(1, 1), padding=(1, 1))
    (4): BatchNorm2d(128, eps=1e-05, momentum=0.1, affine=True, track_running_stats=True)
    (5): ReLU(inplace=True)
  )
  (dec1): Sequential(
    (0): Conv2d(192, 64, kernel_size=(3, 3), stride=(1, 1), padding=(1, 1))
    (1): BatchNorm2d(64, eps=1e-05, momentum=0.1, affine=True, track_running_stats=True)
    (2): ReLU(inplace=True)
    (3): Conv2d(64, 64, kernel_size=(3, 3), stride=(1, 1), padding=(1, 1))
    (4): BatchNorm2d(64, eps=1e-05, momentum=0.1, affine=True, track_running_stats=True)
    (5): ReLU(inplace=True)
  )
  (final): Conv2d(64, 1, kernel_size=(1, 1), stride=(1, 1))
  (pool): MaxPool2d(kernel_size=2, stride=2, padding=0, dilation=1, ceil_mode=False)
  (up): Upsample(scale_factor=2.0, mode='bilinear')
)

开始Epoch 1/10
读取图像: data/annotation_images/3_page_002.png, 掩码: data/mask/3_page_002_mask.png
原始图像形状: (3508, 2481, 3), 掩码形状: (3508, 2481)
图像值范围: [0, 255], 掩码值范围: [0, 1]
读取图像: data/annotation_images/2_page_003.png, 掩码: data/mask/2_page_003_mask.png
…
